…
n.Linear(8, 4), nn.ReLU())  def block2():     net = nn.Sequential()     for i in range(4):         # \u5728\u8fd9\u91cc\u5d4c\u5957         net.add_module(f'block {i}', block1())     return net  rgnet = nn.Sequential(block2(), nn.Linear(4, 1)) rgnet(X) Out[7]: <pre>tensor([[-0.0994],\n        [-0.0994]], grad_fn=&lt;AddmmBackward0&gt;)</pre> <p>\u8bbe\u8ba1\u4e86\u7f51\u7edc\u540e\uff0c\u6211\u4eec\u770b\u770b\u5b83\u662f\u5982\u4f55\u5de5\u4f5c\u7684\u3002</p> In\u00a0[8]: Copied! <pre>print(rgnet)\n</pre> print(rgnet) <pre>Sequential(\n  (0): Sequential(\n    (block 0): Sequential(\n      (0): Linear(in_features=4, out_features=8, bias=True)\n      (1): ReLU()\n      (2): Linear(in_features=8, out_features=4, bias=True)\n      (3): ReLU()\n    )\n    (block 1): Sequential(\n      (0): Linear(in_features=4, out_features=8, bias=True)\n      (1): ReLU()\n      (2): Linear(in_features=8, out_features=4, bias=True)\n      (3): ReLU()\n    )\n    (block 2): Sequential(\n      (0): Linear(in_features=4, out_features=8, bias=True)\n      (1): ReLU()\n      (2): Linear(in_features=8, out_features=4, bias=True)\n      (3): ReLU()\n    )\n    (block 3): Sequential(\n      (0): Linear(in_features=4, out_features=8, bias=True)\n      (1): ReLU()\n      (2): Linear(in_features=8, out_features=4, bias=True)\n      (3): ReLU()\n    )\n  )\n  (1): Linear(in_features=4, out_features=1, bias=True)\n)\n</pre> <p>\u56e0\u4e3a\u5c42\u662f\u5206\u5c42\u5d4c\u5957\u7684\uff0c\u6240\u4ee5\u6211\u4eec\u4e5f\u53ef\u4ee5\u50cf\u901a\u8fc7\u5d4c\u5957\u5217\u8868\u7d22\u5f15\u4e00\u6837\u8bbf\u95ee\u5b83\u4eec\u3002 \u4e0b\u9762\uff0c\u6211\u4eec\u8bbf\u95ee\u7b2c\u4e00\u4e2a\u4e3b\u8981\u7684\u5757\u4e2d\u3001\u7b2c\u4e8c\u4e2a\u5b50\u5757\u7684\u7b2c\u4e00\u5c42\u7684\u504f\u7f6e\u9879\u3002</p> In\u00a0[9]: Copied! <pre>rgnet[0][1][0].bias.data\n</pre> rgnet[0][1][0].bias.data Out[9]: <pre>tensor([ 0.2720,  0.3353, -0.0850, -0.0835, -0.4406,  0.3021, -0.2601,  0.3213])</pre> In\u00a0[10]: Copied! <pre>print(net)\n</pre> print(net) <pre>Sequential(\n  (0): Linear(in_features=4, out_features=8, bias=True)\n  (1): ReLU()\n  (2): Linear(in_features=8, out_features=1, bias=True)\n)\n</pre> In\u00a0[11]: Copied! <pre>def init_normal(m):\n    if type(m) == nn.Linear:\n        nn.init.normal_(m.weight, mean=0, std=0.01)\n        nn.init.zeros_(m.bias)\nnet.apply(init_normal)\nnet[0].weight.data[0], net[0].bias.data[0]\n</pre> def init_normal(m):     if type(m) == nn.Linear:         nn.init.normal_(m.weight, mean=0, std=0.01)         
…
